
__________________________________________________________________________________________________
Layer (type)                    Output Shape         Param #     Connected to                     
==================================================================================================
input (InputLayer)              (None, 1500)         0                                            
__________________________________________________________________________________________________
embedding_1 (Embedding)         (None, 1500, 300)    1500000     input[0][0]                      
__________________________________________________________________________________________________
lstm_1 (LSTM)                   (None, 1500, 300)    721200      embedding_1[0][0]                
__________________________________________________________________________________________________
time_distributed_1 (TimeDistrib (None, 1500, 1)      301         lstm_1[0][0]                     
__________________________________________________________________________________________________
flatten_1 (Flatten)             (None, 1500)         0           time_distributed_1[0][0]         
__________________________________________________________________________________________________
activation_1 (Activation)       (None, 1500)         0           flatten_1[0][0]                  
__________________________________________________________________________________________________
repeat_vector_1 (RepeatVector)  (None, 300, 1500)    0           activation_1[0][0]               
__________________________________________________________________________________________________
permute_1 (Permute)             (None, 1500, 300)    0           repeat_vector_1[0][0]            
__________________________________________________________________________________________________
multiply_1 (Multiply)           (None, 1500, 300)    0           lstm_1[0][0]                     
                                                                 permute_1[0][0]                  
__________________________________________________________________________________________________
lambda_1 (Lambda)               (None, 300)          0           multiply_1[0][0]                 
__________________________________________________________________________________________________
dense_2 (Dense)                 (None, 30)           9030        lambda_1[0][0]                   
==================================================================================================
Total params: 2,230,531
Trainable params: 2,230,531
Non-trainable params: 0
__________________________________________________________________________________________________

Train on 3131 samples, validate on 347 samples
Epoch 1/14
2019-05-24 17:41:16.769279: I tensorflow/core/common_runtime/gpu/gpu_device.cc:1433] Found device 0 with properties: 
…
